Chapter4/models/mobilenetv1_cifar10_0.25.tflite (tflite, 517896 bytes, 58 tensors)

conv1/kernel f4 [8, 3, 3, 3]
0.087439544 0.0020307095 -0.090371154 0.08973921 0.013825155 -0.101270735 0.04087302 0.019505424
-0.058060776 0.11642508 0.008551675 -0.1252329 0.14744206 0.0072190925 -0.15395363 0.10241304
0.0020302837 -0.10481573 0.0679945 0.002652647 -0.06771116 0.10719736 -0.0060619824 -0.09942517
0.087384015 -0.013922152 -0.07587892 -0.25239056 -0.26697972 -0.14209017 -0.45673138 -0.5512086
-0.20097947 -0.26450306 -0.23254861 -0.12500726 0.0018389944 0.06700298 -0.0016143251 0.024515515
0.10135676 0.02070434 0.02632422 0.059123352 0.011319161 0.07209494 0.075660124 0.043588225
0.09896067 0.11854627 0.068454415 0.07992477 0.057583153 0.054319095 -0.0024572923 -0.0023848591
-0.0026186823 -0.0024620842 -0.0023587677 -0.0026089437 -0.0019152976 -0.0018115331 -0.0019385371 -0.002369208
-0.002316405 -0.0025563259 -0.0023991575 -0.0023279053 -0.0025782555 -0.0018730704 -0.0017808562 -0.0019061753
-0.0020861407 -0.0020209826 -0.0022698354 -0.0021262965 -0.0020285873 -0.002298377 -0.0016845379 -0.0015763433
-0.0017407968 1.3930048e-13 1.01064e-12 3.9479967e-13 3.4884468e-13 1.632177e-12 6.026964e-13 -5.794893e-13
9.686944e-13 -3.7555768e-13 -1.3116584e-12 7.405486e-13 -3.1285722e-13 -7.8161886e-13 6.3067704e-13 -5.4432836e-13
-1.4371704e-13 1.8606824e-12 9.696776e-13 -8.354394e-13 3.576802e-13 -6.1647833e-13 -3.9780118e-13 1.1258567e-12
-2.4111404e-13 -5.3758992e-14 2.2420813e-12 7.6448076e-13 -0.052345958 -0.031365816 0.015968308 -0.080674104
-0.087594815 -0.0046816953 -0.06224013 -0.021028077 0.0025219903 0.25452888 0.30299333 0.15394287
0.45622846 0.5846819 0.21337095 0.24515282 0.27295732 0.1278779 0.01974793 0.014467066
0.023535257 2.5419247e-05 -0.060858373 0.0080994945 -0.027253838 0.0010390882 0.00840867 4.078147
1.7559232 -2.3172984 12.602109 9.741125 2.604851 10.016623 20.282393 -3.4827015
-11.203412 -5.624233 1.247641 -23.739866 -15.515738 -2.1220415 -37.173126 -7.2849655
-15.716059 10.385748 3.478255 0.5029253 18.09789 -1.3727376 9.052466 14.676604
-10.97095 9.1642885 0.10236039 -0.109129645 0.0039702924 0.09851907 -0.14098059 0.045447715
0.026049705 -0.08065125 0.05461811 0.18353604 -0.16695146 -0.019392297 0.15827559 -0.20125577
0.046172414 0.03164512 -0.10777829 0.07899855 0.16652854 -0.13914627 -0.029288474 0.13162294
-0.16458133 0.031061346 0.025727855 -0.08555672 0.060163014 -5.6730367e-12 -2.853639e-12 -3.3724568e-12
-5.4043e-12 -2.734126e-12 -2.8618748e-12 -5.480037e-12 -2.5783286e-12 -3.0210316e-12 -5.6257364e-12 -3.6380903e-12
-3.3954573e-12 -5.1087745e-12 -3.0962117e-12 -2.5686866e-12 -5.3997935e-12 -3.356685e-12 -2.4793375e-12 -3.743035e-12
-2.1532864e-12 -2.134663e-12 -4.323369e-12 -2.9898887e-12 -2.7837411e-12 -4.46545e-12 -2.537588e-12 -2.2364007e-12
00000000: 8113 b33d a715 053b 8314 b9bd 31c9 b73d
00000010: e782 623c 0867 cfbd 786a 273d d7c9 9f3c
00000020: 23d1 6dbd 4670 ee3d 531c 0c3c 0e3d 00be
00000030: 0dfb 163e 238e ec3b 05a6 1dbe eebd d13d
00000040: 820e 053b a1a9 d6bd b340 8b3d 08d8 2d3b
00000050: 26ac 8abd 4a8a db3d 98a3 c6bb 6c9f cbbd
00000060: 64f6 b23d bd19 64bc 6866 9bbd 5639 81be
00000070: 91b1 88be 1680 11be b2d8 e9be 021c 0dbf
00000080: 90cd 4dbe f26c 87be 3921 6ebe e701 00be
00000090: 6a0a f13a dc38 893d c397 d3ba c3d4 c83c
000000a0: 2294 cf3d 269c a93c e4a5 d73c 542b 723d
000000b0: 0174 393c 83a6 933d b2f3 9a3d 9189 323d
000000c0: e4ab ca3d 63c8 f23d d431 8c3d 99af a33d
000000d0: 50dc 6b3d b37d 5e3d 860a 21bb 4c4b 1cbb
000000e0: 339e 2bbb eb5a 21bb 8e95 1abb d0fa 2abb
000000f0: b90a fbba f770 edba 8316 feba b744 1bbb
00000100: d4ce 17bb 0888 27bb 2f3b 1dbb c58f 18bb
00000110: f3f7 28bb d081 f5ba 9e6b e9ba a1d8 f9ba
00000120: a2b7 08bb 7672 04bb 85c1 14bb 5659 0bbb
00000130: 0cf2 04bb 5ea0 16bb b6cb dcba 4e9d ceba
00000140: 732b e4ba a1d6 1c2a 253c 8e2b a140 de2a
00000150: d161 c42a 60b5 e52b daa4 292b 9b1c 23ab
00000160: e554 882b 916b d3aa 7999 b8ab 2672 502b
00000170: 7a1f b0aa 9301 5cab 1285 312b fe36 19ab
00000180: 9ecf 21aa 13ef 022c 5178 882b c127 6bab
00000190: 265b c92a f285 2dab 31f1 dfaa 4373 9e2b
000001a0: 32bc 87aa e61b 72a9 bfc5 1d2c a52e 572b
000001b0: b768 56bd 7179 00bd f8cf 823c 7738 a5bd
000001c0: e964 b3bd e868 99bb 82ef 7ebd 1343 acbc
000001d0: fa47 253b 9c51 823e f121 9b3e 33a3 1d3e
000001e0: c796 e93e b7ad 153f ea7d 5a3e 5709 7b3e
000001f0: 10c1 8b3e 6df2 023e 69c6 a13c 4607 6d3c
00000200: 03cd c03c 6b3b d537 a146 79bd beb3 043c
00000210: 7143 dfbc 0432 883a 85c4 093c 2e80 8240
00000220: 17c2 e03f 9e4e 14c0 3da2 4941 a6db 1b41
00000230: e1b5 2640 1644 2041 5742 a241 95e4 5ec0
00000240: 2d41 33c1 b7f9 b3c0 b3b2 9f3f 3feb bdc1
00000250: 7640 78c1 87cf 07c0 48b1 14c2 701e e9c0
00000260: fa74 7bc1 062c 2641 bb9b 5e40 b6bf 003f
00000270: 7bc8 9041 deb5 afbf e7d6 1041 5fd3 6a41
00000280: 0389 2fc1 eda0 1241 53a2 d13d 5d7f dfbd
00000290: 3a19 823b 5ec4 c93d 375d 10be 6227 3a3d
000002a0: 3166 d53c 7c2c a5bd 3db7 5f3d dff0 3b3e
000002b0: 53f5 2abe 98dc 9ebc ff12 223e fe15 4ebe
000002c0: 491f 3d3d 509e 013d ddba dcbd fec9 a13d
000002d0: 7586 2a3e 5c7c 0ebe 62ee efbc 2ac8 063e
000002e0: 0288 28be 5d74 fe3c 39c3 d23c 5d38 afbd
000002f0: 7e6d 763d 2c9a c7ac 97ce 48ac c850 6dac
00000300: 9b25 beac a365 40ac f462 49ac c9cf c0ac
00000310: 0a6f 35ac 1196 54ac 21f0 c5ac 0101 80ac
00000320: 1fef 6eac c0bf b3ac 64e0 59ac 58c1 34ac
00000330: 04fd bdac a934 6cac c677 2eac 43b2 83ac
00000340: 2986 17ac ac36 16ac 721d 98ac 0c65 52ac
00000350: 6ce3 43ac 331d 9dac 1f91 32ac 6a5f 1dac

conv_dw_1/depthwise_kernel f4 [1, 3, 3, 8]
-0.12596849 -0.01639392 -0.68506056 2.200045 0.075453 -0.004220226 -0.06699693 -12.217924
0.053217545 0.22802486 -0.58866405 2.5603855 -0.05625473 0.006425899 0.052826505 -26.72905
0.054963153 -0.02812403 -0.6976178 1.7626776 0.04551304 0.0045664664 0.02220168 -24.807047
0.14971963 0.34031868 -0.61146206 2.4849234 0.34235543 0.066799 0.17164329 -20.91535
-0.61277837 -1.1964282 -0.5890126 2.5392323 -1.299838 -0.0031027615 -0.17983797 -23.657494
-0.3879625 0.17164306 -0.67140245 2.107451 0.2141616 0.004355393 -0.55567217 -23.236992
0.0010377718 0.20630576 -0.59444666 2.21627 -0.027965272 -0.0029891361 0.243875 3.040766
-0.9734401 -0.43183157 -0.55580944 1.8767052 0.26611313 0.0037332939 -0.40081778 6.3779387
-0.058058135 0.13845257 -0.6189552 1.4618063 0.0042728335 0.004785945 -0.62171346 -1.1078728
00000000: e2fd 00be 8b4c 86bc 2160 2fbf 8acd 0c40
00000010: 1a87 9a3d d249 8abb b035 89bd 9e7c 43c1
00000020: a4fa 593d 597f 693e b0b2 16bf 5bdd 2340
00000030: 5c6b 66bd 5990 d23b 9b60 583d 18d5 d5c1
00000040: 0b21 613d 5e64 e6bc 1597 32bf 6b9f e13f
00000050: e26b 3a3d 4ca2 953b 4ce0 b53c d574 c6c1
00000060: 1a50 193e 403e ae3e c788 1cbf fc08 1f40
00000070: 3649 af3e eacd 883d 42c3 2f3e a352 a7c1
00000080: 0bdf 1cbf 8f24 99bf 88c9 16bf c882 2240
00000090: 1761 a6bf b357 4bbb 7227 38be 8c42 bdc1
000000a0: 05a3 c6be 33c3 2f3e 08e1 2bbf 7ae0 0640
000000b0: 2e4d 5b3e afb7 8e3b 8840 0ebf 5ce5 b9c1
000000c0: d805 883a d141 533e a82d 18bf 5ed7 0d40
000000d0: 6d17 e5bc 62e5 43bb 5eba 793e e99b 4240
000000e0: 5f33 79bf 0719 ddbe 8749 0ebf e037 f03f
000000f0: fb3f 883e 47aa 743b fd37 cdbe 1318 cc40
00000100: 5ece 6dbd 83c6 0d3e d973 1ebf 781c bb3f
00000110: 2003 8c3b 6bd3 9c3b 9d28 1fbf c7ce 8dbf

conv_dw_10/depthwise_kernel u1 [1, 3, 3, 128] scale=0.01858269 zero_point=149
0.09291345 -0.01858269 -0.13007884 0.0 0.01858269 -0.03716538 -0.29732305 0.22299229
0.16724421 0.0 0.0 -0.11149614 -0.05574807 -0.14866152 0.11149614 0.07433076
0.3902365 0.07433076 0.3716538 0.05574807 0.05574807 0.0 0.11149614 0.29732305
0.14866152 0.14866152 -0.01858269 1.0034653 -0.07433076 -0.03716538 0.27874035 0.05574807
0.42740187 -0.03716538 0.11149614 0.29732305 -0.01858269 -0.07433076 0.05574807 -0.14866152
0.24157497 -0.14866152 0.05574807 -0.05574807 -0.05574807 -0.26015767 0.16724421 0.05574807
0.2044096 -0.03716538 0.03716538 -0.01858269 -0.11149614 -0.01858269 -0.11149614 -0.09291345
-0.01858269 0.2044096 0.03716538 -0.13007884 -0.01858269 -0.01858269 0.03716538 0.01858269
0.0 0.05574807 0.07433076 0.16724421 -0.11149614 0.11149614 0.16724421 -0.07433076
-0.03716538 -0.48314995 -0.09291345 0.24157497 0.09291345 -0.13007884 0.11149614 0.09291345
0.09291345 -0.07433076 0.03716538 0.01858269 0.03716538 0.26015767 0.09291345 0.22299229
-0.29732305 0.13007884 0.3716538 -0.05574807 0.4088192 -0.13007884 0.03716538 -0.01858269
0.09291345 -0.24157497 -0.07433076 0.3716538 -0.05574807 0.01858269 -0.09291345 0.24157497
-0.26015767 0.0 -0.05574807 -0.31590575 -0.07433076 -0.33448842 -0.42740187 -0.01858269
0.33448842 -0.09291345 -0.14866152 0.31590575 0.07433076 -0.05574807 -0.09291345 0.6132288
-0.1858269 0.33448842 -0.07433076 0.03716538 -0.24157497 -0.09291345 -0.14866152 0.05574807
0.01858269 0.0 0.07433076 0.03716538 0.11149614 0.13007884 -0.07433076 0.27874035
0.7433076 -0.05574807 -0.01858269 -0.14866152 -0.05574807 0.11149614 0.11149614 0.27874035
0.26015767 0.29732305 -0.13007884 -0.11149614 0.1858269 -0.42740187 0.01858269 0.6318115
0.33448842 0.01858269 -0.16724421 -0.42740187 -0.11149614 -0.01858269 -0.13007884 0.11149614
0.33448842 -0.07433076 -0.09291345 -0.09291345 0.0 -0.2044096 0.26015767 -0.33448842
0.5574807 -0.24157497 0.3716538 0.14866152 -0.26015767 -0.35307112 0.07433076 0.11149614
0.5574807 0.05574807 0.27874035 -0.16724421 -0.31590575 -0.16724421 -0.01858269 -0.11149614
-0.09291345 0.5574807 0.16724421 -0.2044096 -0.05574807 -0.03716538 -0.09291345 0.09291345
-0.09291345 0.0 0.0 -0.31590575 -0.14866152 -0.27874035 0.24157497 0.09291345
0.1858269 0.3902365 -0.11149614 -0.92913455 -0.09291345 -0.1858269 0.03716538 0.16724421
0.48314995 -0.14866152 -0.29732305 0.0 0.13007884 -0.16724421 0.26015767 1.1335441
-0.01858269 1.319371 -0.22299229 -0.03716538 0.16724421 -0.48314995 -0.03716538 0.22299229
-0.05574807 -0.05574807 -0.05574807 0.14866152 -0.01858269 -0.11149614 -0.09291345 0.72472495
-0.35307112 0.01858269 -0.31590575 0.24157497 -0.01858269 -0.01858269 0.48314995 -0.16724421
0.3902365 -0.07433076 -0.03716538 0.35307112 0.16724421 0.0 -0.11149614 1.5423633
-0.5760634 -0.11149614 -0.44598457 0.16724421 -0.33448842 -0.16724421 -0.3902365 -0.03716538
00000000: 9a94 8e95 9693 85a1 9e95 958f 928d 9b99
00000010: aa99 a998 9895 9ba5 9d9d 94cb 9193 a498
00000020: ac93 9ba5 9491 988d a28d 9892 9287 9e98
00000030: a093 9794 8f94 8f90 94a0 978e 9494 9796
00000040: 9598 999e 8f9b 9e91 937b 90a2 9a8e 9b9a
00000050: 9a91 9796 97a3 9aa1 859c a992 ab8e 9794
00000060: 9a88 91a9 9296 90a2 8795 9284 9183 7e94
00000070: a790 8da6 9992 90b6 8ba7 9197 8890 8d98
00000080: 9695 9997 9b9c 91a4 bd92 948d 929b 9ba4
00000090: a3a5 8e8f 9f7e 96b7 a796 8c7e 8f94 8e9b
000000a0: a791 9090 958a a383 b388 a99d 8782 999b
000000b0: b398 a48c 848c 948f 90b3 9e8a 9293 909a
000000c0: 9095 9584 8d86 a29a 9faa 8f63 908b 979e
000000d0: af8d 8595 9c8c a3d2 94dc 8993 9e7b 93a1
000000e0: 9292 929d 948f 90bc 8296 84a2 9494 af8c
000000f0: aa91 93a8 9e95 8fe8 768f 7d9e 838c 8093

conv_dw_11/depthwise_kernel u1 [1, 3, 3, 128] scale=0.01439925 zero_point=121
0.07199625 -0.24478725 -0.10079475 0.33118275 0.44637674 -0.057597 0.057597 -0.07199625
0.172791 -0.47517526 -0.6623655 0.230388 -0.3167835 0.44637674 -0.04319775 0.33118275
-0.56157076 -0.057597 -0.07199625 0.27358574 0.56157076 0.24478725 0.27358574 -0.1439925
0.1439925 0.01439925 -0.10079475 -0.057597 0.230388 0.6623655 -0.172791 1.4543242
0.21598876 -0.04319775 0.1439925 -0.345582 -0.2015895 0.38877976 -0.27358574 0.10079475
0.12959325 -0.18719025 -0.2591865 0.30238426 0.21598876 -0.0863955 0.0287985 0.04319775
-0.115194 -0.15839174 0.24478725 0.5039737 0.1439925 0.38877976 -0.07199625 0.56157076
0.04319775 0.33118275 0.10079475 -0.12959325 -0.2591865 0.172791 -0.24478725 0.0287985
0.47517526 -0.057597 0.04319775 0.1439925 0.230388 0.12959325 0.403179 -0.18719025
-0.12959325 0.172791 -0.345582 0.0863955 0.6623655 0.230388 0.115194 0.44637674
0.3167835 -0.172791 0.287985 -0.057597 0.172791 -0.287985 -0.24478725 0.18719025
0.44637674 -0.115194 -0.230388 0.4895745 0.6047685 -0.10079475 -0.27358574 -0.12959325
0.3167835 0.5039737 -0.172791 -0.1439925 -0.04319775 -0.230388 0.4895745 -0.172791
0.0 0.24478725 0.33118275 0.47517526 0.73436177 0.27358574 0.21598876 0.2015895
1.5119213 -0.057597 0.057597 0.3743805 -0.07199625 0.10079475 0.1439925 0.30238426
0.30238426 -0.2015895 0.3167835 -0.12959325 0.115194 0.115194 -0.3167835 0.863955
0.633567 -0.3743805 -0.18719025 0.0287985 0.30238426 -0.15839174 0.53277224 -0.27358574
0.35998124 0.0287985 -0.057597 0.3743805 -0.287985 0.2591865 -0.35998124 0.21598876
-0.7199625 -0.12959325 -0.18719025 0.21598876 0.21598876 0.0287985 0.2591865 -0.15839174
0.2015895 0.57597 -0.10079475 -0.3743805 0.460776 -0.33118275 -0.24478725 0.0287985
0.47517526 -0.33118275 0.2015895 -0.6767647 -0.287985 0.5039737 -0.27358574 0.38877976
-0.057597 -0.115194 -0.21598876 0.2015895 0.04319775 -0.1439925 0.0 -0.01439925
-0.21598876 -0.10079475 0.230388 0.41757825 0.41757825 0.04319775 -0.41757825 0.5471715
0.24478725 0.35998124 0.287985 -0.172791 -0.35998124 0.287985 -0.2015895 0.9071528
0.53277224 -0.633567 -0.1439925 0.44637674 0.1439925 0.18719025 -0.115194 -0.10079475
-0.345582 0.10079475 -0.1439925 -0.24478725 0.633567 0.4319775 0.27358574 -0.15839174
0.57597 -0.230388 0.6623655 -0.172791 0.30238426 -0.2015895 -0.33118275 0.403179
0.35998124 -0.15839174 0.115194 0.57597 -0.9503505 -0.27358574 0.0287985 -0.230388
0.4319775 0.30238426 -0.345582 -0.56157076 -0.3167835 -0.33118275 1.1231415 -0.10079475
-0.01439925 0.44637674 -0.230388 0.863955 0.57597 0.41757825 0.24478725 0.33118275
1.3103317 -0.0863955 0.1439925 0.4895745 -0.27358574 -0.04319775 0.30238426 0.2591865
0.633567 -0.64796627 0.4319775 -0.15839174 0.115194 0.12959325 0.0863955 1.2239362
00000000: 7e68 7290 9875 7d74 8558 4b89 6398 7690
00000010: 5275 748c a08a 8c6f 837a 7275 89a7 6dde
00000020: 8876 8361 6b94 6680 826c 678e 8873 7b7c
00000030: 716e 8a9c 8394 74a0 7c90 8070 6785 687b
00000040: 9a75 7c83 8982 956c 7085 617f a789 8198
00000050: 8f6d 8d75 8565 6886 9871 699b a372 6670
00000060: 8f9c 6d6f 7669 9b6d 798a 909a ac8c 8887
00000070: e275 7d93 7480 838e 8e6b 8f70 8181 63b5
00000080: a55f 6c7b 8e6e 9e66 927b 7593 658b 6088
00000090: 4770 6c88 887b 8b6e 87a1 725f 9962 687b
000000a0: 9a62 874a 659c 6694 7571 6a87 7c6f 7978
000000b0: 6a72 8996 967c 5c9f 8a92 8d6d 608d 6bb8
000000c0: 9e4d 6f98 8386 7172 6180 6f68 a597 8c6e
000000d0: a169 a76d 8e6b 6295 926e 81a1 3766 7b69
000000e0: 978e 6152 6362 c772 7898 69b5 a196 8a90
000000f0: d473 839b 6676 8e8b a54c 976e 8182 7fce

conv_dw_12/depthwise_kernel u1 [1, 3, 3, 128] scale=0.016911848 zero_point=91
-0.30441326 -0.13529478 0.16911848 -1.0654464 0.25367773 0.3551488 0.25367773 0.3213251
-0.10147108 0.23676586 -0.15220663 -0.15220663 0.15220663 -0.21985401 0.18603033 -0.15220663
2.0125098 0.3213251 0.23676586 0.20294216 -0.13529478 0.20294216 -0.16911848 -0.16911848
0.21985401 -0.05073554 0.23676586 0.27058956 -0.13529478 -0.23676586 -0.21985401 0.23676586
0.33823696 -0.10147108 -0.18603033 0.15220663 0.16911848 -0.16911848 -0.16911848 0.30441326
-0.15220663 0.0 -0.15220663 0.18603033 0.25367773 0.21985401 -0.13529478 0.21985401
-0.3889725 -0.16911848 0.25367773 0.16911848 0.30441326 -0.11838293 0.25367773 0.21985401
0.16911848 0.18603033 0.3213251 0.25367773 0.25367773 -0.20294216 0.25367773 -0.06764739
0.33823696 0.23676586 0.6088265 -0.18603033 -0.18603033 -0.13529478 -0.11838293 -0.16911848
-0.20294216 -0.21985401 -0.3213251 0.30441326 -0.27058956 0.25367773 -0.08455924 0.23676586
0.20294216 -0.27058956 -0.27058956 0.27058956 -0.13529478 -0.23676586 -0.16911848 -0.15220663
0.18603033 -0.15220663 0.18603033 0.21985401 -0.15220663 0.21985401 -0.16911848 0.20294216
-0.21985401 -0.27058956 0.23676586 0.23676586 -1.3022122 0.20294216 -0.08455924 0.18603033
0.33823696 0.11838293 -0.13529478 0.21985401 0.16911848 0.27058956 0.50735545 0.15220663
-0.08455924 -0.27058956 -0.23676586 -0.18603033 -0.15220663 0.25367773 -0.27058956 0.18603033
-0.11838293 -0.25367773 0.27058956 -0.33823696 0.2875014 0.27058956 0.3213251 0.21985401
-0.37206066 -0.16911848 0.21985401 -0.9132398 0.3551488 0.4227962 0.3213251 0.40588433
-0.13529478 0.2875014 -0.18603033 -0.20294216 0.21985401 -0.25367773 0.25367773 -0.20294216
2.773543 0.40588433 0.30441326 0.25367773 -0.18603033 0.2875014 -0.23676586 -0.21985401
0.27058956 -0.06764739 0.33823696 0.37206066 -0.20294216 -0.30441326 -0.2875014 0.2875014
0.43970802 -0.15220663 -0.25367773 0.20294216 0.23676586 -0.23676586 -0.23676586 0.40588433
-0.21985401 0.0 -0.20294216 0.27058956 0.3213251 0.2875014 -0.16911848 0.30441326
-0.47353172 -0.25367773 0.33823696 0.21985401 0.3889725 -0.27058956 0.33823696 0.27058956
0.21985401 0.27058956 0.3889725 0.33823696 0.3551488 -0.27058956 0.3213251 -0.08455924
0.43970802 0.3213251 0.7441213 -0.18603033 -0.23676586 -0.20294216 -0.16911848 -0.21985401
-0.27058956 -0.30441326 -0.3889725 0.3889725 -0.3551488 0.3213251 -0.13529478 0.30441326
0.27058956 -0.30441326 -0.33823696 0.3551488 -0.16911848 -0.3213251 -0.23676586 -0.18603033
0.25367773 -0.18603033 0.25367773 0.30441326 -0.20294216 0.2875014 -0.23676586 0.27058956
-0.2875014 -0.3213251 0.30441326 0.3213251 -0.05073554 0.27058956 -0.13529478 0.27058956
0.43970802 0.18603033 -0.20294216 0.27058956 0.23676586 0.37206066 0.6088265 0.16911848
-0.10147108 -0.37206066 -0.2875014 -0.25367773 -0.16911848 0.33823696 -0.3551488 0.25367773
-0.16911848 -0.23676586 0.33823696 0.50735545 0.37206066 0.33823696 0.4227962 0.21985401
00000000: 4953 651c 6a70 6a6e 5569 5252 644e 6652
00000010: d26e 6967 5367 5151 6858 696b 534d 4e69
00000020: 6f55 5064 6551 516d 525b 5266 6a68 5368
00000030: 4451 6a65 6d54 6a68 6566 6e6a 6a4f 6a57
00000040: 6f69 7f50 5053 5451 4f4e 486d 4b6a 5669
00000050: 674b 4b6b 534d 5152 6652 6668 5268 5167
00000060: 4e4b 6969 0e67 5666 6f62 5368 656b 7964
00000070: 564b 4d50 526a 4b66 544c 6b47 6c6b 6e68
00000080: 4551 6825 7074 6e73 536c 504f 684c 6a4f
00000090: ff73 6d6a 506c 4d4e 6b57 6f71 4f49 4a6c
000000a0: 7552 4c67 694d 4d73 4e5b 4f6b 6e6c 516d
000000b0: 3f4c 6f68 724b 6f6b 686b 726f 704b 6e56
000000c0: 756e 8750 4d4f 514e 4b49 4472 466e 536d
000000d0: 6b49 4770 5148 4d50 6a50 6a6d 4f6c 4d6b
000000e0: 4a48 6d6e 586b 536b 7566 4f6b 6971 7f65
000000f0: 5545 4a4c 516f 466a 514d 6f79 716f 7468

conv_dw_13/depthwise_kernel u1 [1, 3, 3, 256] scale=0.48089516 zero_point=113
-0.48089516 -0.48089516 0.48089516 -0.48089516 -0.48089516 -0.48089516 0.48089516 0.48089516
0.48089516 0.48089516 0.48089516 -0.48089516 0.0 0.48089516 -0.48089516 -0.48089516
-0.9617903 0.9617903 0.48089516 -0.48089516 -0.48089516 0.48089516 0.0 -0.48089516
0.9617903 0.0 0.48089516 0.48089516 0.9617903 0.0 0.48089516 0.48089516
-0.48089516 0.9617903 -0.48089516 0.48089516 0.0 0.0 0.9617903 0.0
-0.48089516 -0.48089516 -0.48089516 0.0 0.48089516 0.0 0.9617903 0.48089516
-0.48089516 0.0 0.0 0.48089516 0.9617903 0.48089516 -0.48089516 0.0
0.48089516 0.0 -0.48089516 0.0 0.48089516 0.0 0.9617903 -0.48089516
0.48089516 -0.48089516 0.48089516 0.48089516 0.0 -0.48089516 0.0 -0.48089516
0.48089516 0.9617903 0.48089516 0.9617903 1.4426855 0.0 0.48089516 0.48089516
0.48089516 0.48089516 0.48089516 0.48089516 0.0 0.48089516 -0.48089516 -0.48089516
-0.48089516 0.9617903 0.48089516 -0.48089516 -0.48089516 0.0 0.0 -0.48089516
-0.9617903 -0.48089516 -0.9617903 0.48089516 1.4426855 0.48089516 0.0 0.0
0.0 0.0 -0.48089516 0.0 -0.48089516 0.48089516 -0.48089516 0.48089516
0.48089516 0.0 0.48089516 0.0 0.0 -0.48089516 0.48089516 -0.48089516
0.0 0.9617903 0.0 0.48089516 0.48089516 0.0 -0.48089516 -0.48089516
0.9617903 0.9617903 0.48089516 0.48089516 0.0 0.9617903 -0.48089516 0.48089516
0.48089516 0.0 0.48089516 -0.48089516 -2.4044757 0.0 0.0 0.0
-0.48089516 -0.9617903 0.48089516 0.0 0.0 0.0 -0.48089516 0.0
0.9617903 0.0 0.9617903 -6.251637 -0.48089516 -0.48089516 0.48089516 -0.48089516
0.0 0.48089516 0.0 0.48089516 0.48089516 0.9617903 0.9617903 35.586243
-0.48089516 -0.9617903 0.0 -0.48089516 0.48089516 -0.48089516 -0.48089516 0.0
0.48089516 0.0 -0.48089516 -0.48089516 -0.48089516 -0.48089516 0.0 -0.48089516
0.9617903 0.0 0.0 0.48089516 0.0 0.0 0.48089516 0.48089516
0.48089516 0.48089516 -0.48089516 -0.48089516 0.0 -0.48089516 0.48089516 0.0
-0.48089516 -0.48089516 0.48089516 -0.48089516 -0.48089516 0.9617903 -0.48089516 0.9617903
0.9617903 -0.48089516 -0.48089516 -0.48089516 0.48089516 0.48089516 0.48089516 0.48089516
0.48089516 0.0 -0.48089516 0.9617903 0.48089516 -0.48089516 0.48089516 -0.48089516
0.48089516 0.0 -0.48089516 -0.48089516 0.48089516 -0.48089516 -0.48089516 -0.48089516
0.48089516 0.0 -0.48089516 0.0 -0.48089516 0.48089516 0.48089516 0.48089516
0.0 -0.48089516 1.4426855 -0.48089516 0.0 -0.48089516 -0.9617903 -0.48089516
0.0 -0.9617903 -0.48089516 0.0 0.48089516 0.48089516 0.48089516 -0.9617903
00000000: 7070 7270 7070 7272 7272 7270 7172 7070
00000010: 6f73 7270 7072 7170 7371 7272 7371 7272
00000020: 7073 7072 7171 7371 7070 7071 7271 7372
00000030: 7071 7172 7372 7071 7271 7071 7271 7370
00000040: 7270 7272 7170 7170 7273 7273 7471 7272
00000050: 7272 7272 7172 7070 7073 7270 7071 7170
00000060: 6f70 6f72 7472 7171 7171 7071 7072 7072
00000070: 7271 7271 7170 7270 7173 7172 7271 7070
00000080: 7373 7272 7173 7072 7271 7270 6c71 7171
00000090: 706f 7271 7171 7071 7371 7364 7070 7270
000000a0: 7172 7172 7273 73bb 706f 7170 7270 7071
000000b0: 7271 7070 7070 7170 7371 7172 7171 7272
000000c0: 7272 7070 7170 7271 7070 7270 7073 7073
000000d0: 7370 7070 7272 7272 7271 7073 7270 7270
000000e0: 7271 7070 7270 7070 7271 7071 7072 7272
000000f0: 7170 7470 7170 6f70 716f 7071 7272 726f

conv_dw_2/depthwise_kernel f4 [1, 3, 3, 16]
0.2035353 -0.08810387 -0.4113755 39.48861 10.277678 -0.018907523 -0.11954293 0.10874309
0.17911498 0.23241846 -0.6011778 0.07850268 0.011205947 14.393595 -0.16993567 -0.5382369
0.97811896 -0.32602653 1.0084784 48.87938 -60.13946 0.12087757 0.07643317 0.22937693
0.31423563 1.9718251 0.49040052 -0.64901197 0.26173824 10.118573 -0.37240455 -1.1201965
-0.11555141 -0.074110456 1.1144497 41.246666 -48.774906 -0.22771542 -0.021356566 -0.022691159
0.19180611 1.8604232 1.17276 -0.30758098 -0.050860588 9.789143 0.019320214 -0.22850983
0.063286565 -0.0075761704 -0.2829292 -29.408232 29.914585 -0.07040327 -0.10247727 0.49039772
0.2576865 -0.7302038 0.034048613 -0.3088114 -0.010875403 15.722948 -0.5526658 0.44794336
0.27525935 -0.027057689 0.20869836 29.47291 -59.25456 0.22090827 -0.18538442 1.0744597
0.43329072 0.23024738 0.17183086 -0.3298379 0.73412925 17.308243 -1.451431 0.6922276
0.008577715 0.017704392 -0.015888775 44.850132 -52.998478 -0.78749466 0.18249986 0.33465388
0.27021608 -0.51825726 0.4759301 -0.332124 0.0106368335 21.021065 -0.5663772 0.2293616
-0.25038314 0.09738065 0.17018193 -31.75632 0.99027103 0.008201191 1.1325766 -0.6099249
0.10098625 0.44435275 0.15671805 0.2505861 0.073626116 9.239829 0.7454297 0.10866943
-0.49722558 0.10551228 -0.36339825 -4.832196 -24.027884 0.057957526 -0.82109964 -1.2665236
0.15947804 -0.93077654 -0.35521868 0.5490775 0.25160214 23.121819 1.8455085 0.25919467
-0.23032632 -0.0062576295 -0.5283249 25.298737 -17.321772 -0.22809097 -0.14779478 -0.2720886
0.13350248 -0.282897 -0.8119642 0.20121492 -0.0073907454 17.410246 0.54553014 -0.018432468
00000000: 8f6b 503e cd6f b4bd cf9f d2be 56f4 1d42
00000010: 5e71 2441 f3e3 9abc ecd2 f4bd b2b4 de3d
00000020: eb69 373e 1bff 6d3e cae6 19bf 03c6 a03d
00000030: 2699 373c 2a4c 6641 9e03 2ebe e5c9 09bf
00000040: 0166 7a3f f3ec a6be d215 813f 7c84 4342
00000050: cf8e 70c2 a98e f73d fe88 9c3d c9e1 6a3e
00000060: 7ee3 a03e c464 fc3f c715 fb3e a625 26bf
00000070: 8e02 863e ade5 2141 cfab bebe 9962 8fbf
00000080: 38a6 ecbd 39c7 97bd 4aa6 8e3f 96fc 2442
00000090: 8119 43c2 3b2e 69be f7f3 aebc cfe2 b9bc
000000a0: d268 443e 5922 ee3f 001d 963f 417b 9dbe
000000b0: 3153 50bd 54a0 1c41 6d45 9e3c 7bfe 69be
000000c0: 639c 813d 8641 f8bb 19dc 90be 0f44 ebc1
000000d0: 1251 ef41 972f 90bd 9adf d1bd 6915 fb3e
000000e0: 7cef 833e a3ee 3abf 8f76 0b3d 871c 9ebe
000000f0: bf2e 32bc 3291 7b41 827b 0dbf d558 e53e
00000100: cbee 8c3e 16a8 ddbc 06b5 553e 85c8 eb41
00000110: ab04 6dc2 c735 623e 6ad5 3dbe e587 893f
00000120: 48d8 dd3e f8c5 6b3e 6ef4 2f3e 83e0 a8be
00000130: e5ef 3b3f 4877 8a41 7ec8 b9bf d435 313f
00000140: 8b89 0c3c cd08 913c 2d29 82bc 8966 3342
00000150: 71fe 53c2 4099 49bf 3ee1 3a3e c157 ab3e
00000160: c359 8a3e 82ac 04bf 1cad f33e 280c aabe
00000170: 1d46 2e3c 242b a841 19fe 10bf c4dd 6a3e
00000180: 3832 80be 826f c73d 2c44 2e3e f20c fec1
00000190: 6782 7d3f 4a5e 063c 45f8 903f 0a24 1cbf
000001a0: e1d1 ce3d 3482 e33e b27a 203e d24c 803e
000001b0: 4ac9 963d 57d6 1341 7bd4 3e3f 148e de3d
000001c0: 5a94 febe d216 d83d 560f babe 5aa1 9ac0
000001d0: 1b39 c0c1 df64 6d3d 9633 52bf 721d a2bf
000001e0: 364e 233e 5f47 6ebf 39df b5be 5890 0c3f
000001f0: ffd1 803e 7cf9 b841 9f39 ec3f 2ab5 843e
00000200: aada 6bbe cd0c cdbb 4d40 07bf d063 ca41
00000210: fd92 8ac1 ae90 69be 8457 17be 324f 8bbe
00000220: e0b4 083e e0d7 90be e3dc 4fbf 490b 4e3e
00000230: 112e f2bb 2f48 8b41 dda7 0b3f b0ff 96bc

conv_dw_3/depthwise_kernel f4 [1, 3, 3, 32]
-1.1362104 23.97854 -0.9450545 -1.0574251 0.09540789 -0.08050197 0.89234877 -0.32701075
-1.3579699 1.4192686 -2.1932514 -1.9022684 0.0031789592 0.9540599 1.829886 0.09675393
0.039124917 -0.17714217 23.623316 0.25230128 1.8178481 -0.2896861 -0.040420078 -0.19791645
0.16409774 0.2302762 0.12895533 0.46345717 -0.83416873 -0.2456676 0.021109888 0.006577015
1.2885307 18.341291 1.1845691 -0.55371606 -0.19410604 -0.35080567 -0.49082312 -0.11747655
-1.1200861 0.6567251 1.957281 2.3886838 -1.0352442 5.0617065 -1.1613771 -0.6157087
0.2662157 -0.04797777 8.678971 1.7020041 12.42501 0.8704995 0.13660593 -0.6422823
0.019354364 -0.53569883 -1.3365211 0.00492438 -0.36884978 0.64804834 -0.15815401 -0.19502868
-0.20800933 28.388216 -0.19241853 -0.41283837 0.04080214 0.50696915 -0.28085113 -0.054805182
-0.8571625 -0.047980603 0.060575537 -0.7512126 0.20340163 0.12889843 10.25264 0.06314844
-0.041130975 -0.057145618 -18.056295 0.29353794 0.3336698 -0.26291534 -0.050285216 -1.4096243
0.1103883 0.16190624 1.2042093 0.0315149 0.22202247 -0.38642672 0.10317323 0.033468492
5.311992 33.379883 -7.463002 2.4055119 -0.2242847 0.0684113 4.1158123 0.5773775
4.2679887 -1.1025767 2.0205026 -14.472693 -0.00058668904 -0.7518096 21.5289 -0.2026085
-0.19984807 0.37283427 75.97765 -0.52017486 -2.2793014 0.16678177 0.34045044 0.10399003
-0.10464599 -0.08822956 -0.6686529 -0.93104106 1.760468 3.4227188 -0.3085437 -0.2493562
-6.690358 13.323194 6.4773793 0.6149928 0.48308676 0.1423583 -3.1609292 0.24630058
0.62019837 -0.22429034 -1.6137657 14.36964 0.03751096 -4.860002 27.29594 -1.0714356
-1.1510173 1.217121 24.046408 -2.028244 -9.990153 -0.6460224 2.9289744 0.43305758
-1.2273625 0.2587594 -6.244965 -0.45549774 0.47757944 -5.969872 -0.2501536 -3.0989146
1.5170336 -9.967893 0.9216332 -0.72316444 -0.18040057 -0.40310127 -0.8132519 -0.1923345
-1.1053759 -0.11370223 -0.17536654 0.2116709 0.1343345 -0.30539978 2.7804766 -0.078847826
0.0084311385 -0.4057312 -4.8427877 -0.38607973 -0.9721424 0.22007911 0.053446803 0.2792213
0.23222277 -0.051981468 7.036064 0.3228439 -0.45860404 2.5638762 0.04303137 -0.035108447
0.28595793 17.508648 -0.7786787 0.9064513 -0.027257834 0.024458392 0.38874102 0.27017805
1.4182711 -0.227719 0.120071314 -1.270104 -0.0033379118 -0.015126564 6.848281 0.084495574
0.12480149 -0.10847358 -2.6212118 0.19653186 0.3208212 0.03825895 -0.15750454 0.03707833
0.023797654 -0.01462707 0.16952212 -0.34318507 0.03841333 0.73211175 -0.28403392 0.13252036
-0.39138967 -2.5149882 0.54306394 0.0036484334 0.04631504 0.09013978 -0.3894927 0.10200868
-0.5053295 -0.004435763 -0.118323594 1.679161 0.07510591 -0.71318144 13.20236 -0.04176095
0.31234553 -0.11189689 4.9504585 0.1852659 -1.9072584 -0.21916804 0.3029214 0.16834638
0.19985308 0.047446407 -0.66083455 -0.14967847 -0.32310933 -0.7119549 -0.19168164 -0.1966431
00000000: 586f 91bf 0dd4 bf41 17ef 71bf b559 87bf
00000010: 3665 c33d 38de a4bd f870 643f f46d a7be
00000020: f5d1 adbf 98aa b53f 3b5e 0cc0 887d f3bf
00000030: 1656 503b 453d 743f b439 ea3f ed26 c63d
00000040: 7341 203d c264 35be 8dfc bc41 a22d 813e
00000050: 3faf e83f bd51 94be 868f 25bd 9caa 4abe
00000060: 3d09 283e 86cd 6b3e de0c 043e 424a ed3e
00000070: 158c 55bf 4a90 7bbe a5ee ac3c 0084 d73b
00000080: 93ee a43f f7ba 9241 f69f 973f 56c0 0dbf
00000090: bcc3 46be cd9c b3be 2b4d fbbe 8c97 f0bd
000000a0: fb5e 8fbf 231f 283f 2f88 fa3f 32e0 1840
000000b0: e282 84bf 80f9 a140 01a8 94bf 169f 1dbf
000000c0: 6d4d 883e 5784 44bd 11dd 0a41 45db d93f
000000d0: d7cc 4641 0ed9 5e3f 6de2 0b3e 9d6c 24bf
000000e0: 0b8d 9e3c 8f23 09bf 2013 abbf b25c a13b
000000f0: e1d9 bcbe 7fe6 253f 20f3 21be 99b5 47be
00000100: 6600 55be 111b e341 5d09 45be 8d5f d3be
00000110: 2520 273d bbc8 013f b8cb 8fbe 667b 60bd
00000120: 006f 5bbf 4f87 44bd 0e1e 783d 784f 40bf
00000130: 8448 503e f3fd 033e d00a 2441 f853 813d
00000140: f478 28bd 8611 6abd 4b73 90c1 9b4a 963e
00000150: c5d6 aa3e d79c 86be dff7 4dbd 926e b4bf
00000160: 4313 e23d c0ca 253e 8823 9a3f c515 013d
00000170: dc59 633e b9d9 c5be 7d4c d33d 4216 093d
00000180: d7fb a940 0085 0542 ead0 eec0 e8f3 1940
00000190: e3aa 65be 391b 8c3d bcb4 8340 03cf 133f
000001a0: 5d93 8840 3c21 8dbf ea4f 0140 2790 67c1
000001b0: 09cc 19ba 9876 40bf 303b ac41 9a78 4fbe
000001c0: f9a4 4cbe 22e4 be3e 8ff4 9742 2e2a 05bf
000001d0: 13e0 11c0 d7c8 2a3e 854f ae3e baf8 d43d
000001e0: a350 d6bd b3b1 b4bd d62c 2bbf b558 6ebf
000001f0: 0457 e13f d30d 5b40 71f9 9dbe 3b57 7fbe
00000200: 6a17 d6c0 cd2b 5541 b146 cf40 2b70 1d3f
00000210: 2657 f73e 60c6 113e aa4c 4ac0 3836 7c3e
00000220: 52c5 1e3f 5eac 65be e08f cebf 0cea 6541
00000230: 18a5 193d 2385 9bc0 165e da41 cd24 89bf
00000240: 8954 93bf 9fca 9b3f 0b5f c041 c0ce 01c0
00000250: abd7 1fc1 b961 25bf 5174 3b40 b9b9 dd3e
00000260: 371a 9dbf 1d7c 843e c1d6 c7c0 0037 e9be
00000270: 4b85 f43e 3109 bfc0 2214 80be 9e54 46c0
00000280: 282e c23f 7d7c 1fc1 27f0 6b3f 4e21 39bf
00000290: edba 38be 4a63 cebe 4731 50bf 56f3 44be
000002a0: f57c 8dbf b7dc e8bd 4993 33be 42c0 583e
000002b0: fc8e 093e 5c5d 9cbe 54f3 3140 f87a a1bd
000002c0: c222 0a3c 00bc cfbe 1ef8 9ac0 3eac c5be
000002d0: 53de 78bf 6b5c 613e 09eb 5a3d 18f6 8e3e
000002e0: cecb 6d3e 85ea 54bd 7027 e140 cc4b a53e
000002f0: 26ce eabe 8c16 2440 a941 303d e0cd 0fbd
00000300: 1469 923e b611 8c41 7d57 47bf 310d 683f
00000310: d24b dfbc f75c c83c 1009 c73e c754 8a3e
00000320: e889 b53f 2b2f 69be f3e7 f53d c592 a2bf
00000330: dec0 5abb 68d5 77bc 1e25 db40 040c ad3d
00000340: ec97 ff3d 6527 debd efc1 27c0 a63f 493e
00000350: ad42 a43e 6bb5 1c3d df48 21be 72df 173d
00000360: 4cf3 c23c 61a6 6fbc 3597 2d3e f4b5 afbe
00000370: 4c57 1d3d ad6b 3b3f e56c 91be 6bb3 073e
00000380: 3a64 c8be 91f5 20c0 3d06 0b3f 8e1a 6f3b
00000390: d7b4 3d3d 349b b83d 966b c7be ede9 d03d
000003a0: 465d 01bf e159 91bb a453 f2bd bfee d63f
000003b0: 21d1 993d 0f93 36bf de3c 5341 880d 2bbd
000003c0: c1eb 9f3e 322a e5bd 286a 9e40 58b6 3d3e
000003d0: 0b21 f4bf 966d 60be 8418 9b3e fe62 2c3e
000003e0: 49a6 4c3e 2a57 423d 742c 29bf 5045 19be
000003f0: 966e a5be ad42 36bf 3148 44be cf5c 49be

conv_dw_4/depthwise_kernel f4 [1, 3, 3, 32]
-0.162901 0.15178314 0.24573241 -0.6644631 0.15553068 0.14233513 -0.2743932 0.17543995
-0.15751603 0.22883698 -0.08705328 0.15913767 -0.239963 0.20594673 0.22124602 0.1259467
-0.01624135 0.02966655 0.19355413 0.00938715 0.3468667 -1.0929629 0.30440366 -0.20310083
-0.36503327 0.20282044 0.183956 0.17884763 0.19641632 3.3544047 0.13555542 0.28213552
-0.20744245 0.21078865 0.40539968 -1.1920521 0.29302087 0.30955705 -0.36758298 0.2511342
-0.26099044 0.28714484 0.7442618 0.27408612 -0.3165016 0.30227596 0.34219053 0.24357942
0.008512222 0.19793276 0.26059145 0.021064797 0.42442146 0.85025096 0.41377816 -0.2851791
0.43493167 0.37998986 0.2438925 0.34840733 0.37419593 5.4113874 0.20594707 0.07113911
-0.078987055 0.10292076 0.20011444 -0.6216003 0.17449631 0.16209564 -0.14464226 0.101963624
-0.12996748 0.09351093 -0.6140105 0.16219549 -0.12774041 0.12398932 0.06414046 0.10992515
-0.0050792443 0.12701486 0.11135625 0.0502922 0.16106392 0.21499561 0.13664752 -0.10025461
0.002846226 0.19586496 0.12274065 0.19474734 0.21291274 2.5554624 0.10864947 -0.12794854
-0.21282457 0.22621046 0.35145807 0.8976933 0.2659094 0.18754391 -0.36597773 0.28421918
-0.3004561 0.30897206 -0.09264262 0.25808272 -0.27647936 0.2242828 -0.96029645 0.25271493
0.061786693 0.04508238 0.27396435 0.10763551 0.49350882 -1.7775197 0.48999107 -0.32864758
-0.6428011 0.28792164 0.23069677 0.4134018 0.36131796 -3.0137224 0.3396242 0.40858203
-0.32532296 0.3436906 0.59828466 1.3011909 0.39909768 0.4060287 -0.6140509 0.38770783
-0.40291056 0.37121063 1.1067605 0.3494902 -0.39186645 0.33772165 -1.3847116 0.34662324
0.10004264 0.20584548 0.39895797 0.14118767 0.6739953 1.5714383 0.6117596 -0.4732157
0.70863473 0.52137935 0.31271085 0.60300297 0.5644637 -4.191978 0.42654917 0.30489016
-0.16021793 0.18018794 0.28548637 0.63395 0.21273494 0.20820932 -0.32928035 0.15962529
-0.17841636 0.11995584 -0.980119 0.20483911 -0.14719915 0.13165121 -0.68275106 0.14437035
0.052820988 0.13040124 0.20351829 0.0867386 0.2779143 0.053240284 0.20821528 -0.17510106
-0.0841422 0.27885675 0.15901995 0.2684049 0.27596125 -2.195852 0.20990488 0.034114458
-0.065308206 0.1054526 0.12815411 -0.039204977 0.1420472 0.07662669 -0.13267505 0.14103459
-0.10736643 0.12422503 0.04191805 0.12764318 -0.04741452 0.043182082 0.8945736 0.1556887
0.099863395 0.009746016 0.102049544 0.116703555 0.19520146 -0.73589027 0.22880134 -0.15687749
-0.3145524 0.10796736 0.086786136 0.28518993 0.18513563 -0.33795458 0.27511433 0.18504745
-0.16459276 0.16989899 0.23935525 -0.062895134 0.1798369 0.16685313 -0.32231808 0.1603956
-0.11015737 0.15222904 0.47934198 0.15177153 -0.08570748 0.07336657 1.4819095 0.16022344
0.15109858 0.057512935 0.18465827 0.13520315 0.31890824 0.7144842 0.2529563 -0.23439747
0.26416132 0.18610272 0.10661482 0.3389227 0.24551032 -0.08590584 0.31580982 0.22532624
00000000: 85cf 26be 0a6d 1b3e 47a1 7b3e 411a 2abf
00000010: 6f43 1f3e 4dc0 113e 447d 8cbe 88a6 333e
00000020: e24b 21be 3e54 6a3e fd48 b2bd fcf4 223e
00000030: dcb8 75be b3e3 523e 518e 623e 2cf8 003e
00000040: 940c 85bc 4407 f33c 0e33 463e 90cc 193c
00000050: 8398 b13e 35e6 8bbf ccda 9b3e aaf9 4fbe
00000060: a4e5 babe 29b0 4f3e f65e 3c3e d523 373e
00000070: 5c21 493e 91ae 5640 0acf 0a3e 1174 903e
00000080: cb6b 54be fbd8 573e 8c90 cf3e 2a95 98bf
00000090: d506 963e 437e 9e3e d633 bcbe a994 803e
000000a0: 8aa0 85be a604 933e f187 3e3f 0455 8c3e
000000b0: 7f0c a2be eac3 9a3e 9933 af3e e26c 793e
000000c0: d976 0b3c e3ae 4a3e 3e6c 853e 1590 ac3c
000000d0: c54d d93e 0caa 593f bbda d33e ff02 92be
000000e0: 5daf de3e 088e c23e f5be 793e 7262 b23e
000000f0: 9c96 bf3e 162a ad40 cae3 523e 62b1 913d
00000100: f7c3 a1bd 1fc8 d23d cdea 4c3e 3221 1fbf
00000110: 29af 323e 66fc 253e 1a1d 14be 4ed2 d03d
00000120: 3216 05be a982 bf3d cb2f 1dbf 9316 263e
00000130: 62ce 02be 1dee fd3d 135c 833d 7020 e13d
00000140: ca6f a6bb 2f10 023e bf0e e43d 32ff 4d3d
00000150: f1ed 243e cf27 5c3e 54ed 0b3e 4a52 cdbd
00000160: c087 3a3b d390 483e 735f fb3d d96b 473e
00000170: cc05 5a3e b28c 2340 9d83 de3d f104 03be
00000180: afee 59be b7a3 673e 50f2 b33e 3acf 653f
00000190: 4725 883e 830b 403e 6f61 bbbe 2d85 913e
000001a0: 62d5 99be 9631 9e3e 6abb bdbd 6b23 843e
000001b0: b48e 8dbe 64aa 653e fdd5 75bf da63 813e
000001c0: 0b14 7d3d 4da8 383d 0e45 8c3e 0270 dc3d
000001d0: 30ad fc3e c485 e3bf 1ce0 fa3e 7f44 a8be
000001e0: 9d8e 24bf 776a 933e c63b 6c3e 67a9 d33e
000001f0: abfe b83e d4e0 40c0 39e3 ad3e aa31 d13e
00000200: bb90 a6be 37f8 af3e 2f29 193f 6c8d a63f
00000210: 8856 cc3e fee2 cf3e 7132 1dbf a481 c63e
00000220: 4b4a cebe 520f be3e 54aa 8d3f 61f0 b23e
00000230: b8a2 c8be dae9 ac3e 3b3e b1bf 9a78 b13e
00000240: 28e3 cc3d 28c9 523e 3844 cc3e 8093 103e
00000250: f58a 2c3f e424 c93f 479c 1c3f 5449 f2be
00000260: 1669 353f 1e79 053f a31b a03e 675e 1a3f
00000270: b180 103f af24 86c0 a764 da3e 901a 9c3e
00000280: 2b10 24be 3083 383e 452b 923e 8c4a 223f
00000290: 30d7 593e d334 553e 6f97 a8be d074 233e
000002a0: c7b2 36be 68ab f53d 14e9 7abf 58c1 513e
000002b0: 60bb 16be 93cf 063e c6c8 2ebf d2d5 133e
000002c0: d25a 583d e787 053e 1967 503e 02a4 b13d
000002d0: c84a 8e3e 7c12 5a3d 6336 553e b14d 33be
000002e0: bf52 acbd 50c6 8e3e 20d6 223e 5e6c 893e
000002f0: cb4a 8d3e d788 0cc0 4ef1 563e 9abb 0b3d
00000300: 4fc0 85bd 88f7 d73d d53a 033e 6695 20bd
00000310: d274 113e 74ee 9c3d f8db 07be 5f6b 103e
00000320: eee2 dbbd b169 fe3d 43b2 2b3d e5b4 023e
00000330: ba35 42bd b2df 303d c702 653f dc6c 1f3e
00000340: 2e85 cc3d c1ad 1f3c 5aff d03d 4602 ef3d
00000350: e4e2 473e 4e63 3cbf e64a 6a3e 7ea4 20be
00000360: 030d a1be fe1d dd3d eebc b13d 6a04 923e
00000370: 3294 3d3e 6208 adbe c9db 8c3e 147d 3d3e
00000380: 018b 28be 00fa 2d3e 8b19 753e 2acf 80bd
00000390: 2a27 383e 8cdb 2a3e e006 a5be bf3e 243e
000003a0: 309a e1bd eee1 1b3e 506c f53e ff69 1b3e
000003b0: 6787 afbd 3641 963d 36af bd3f 9d11 243e
000003c0: 96b9 1a3e af92 6b3d 0f17 3d3e b272 0a3e
000003d0: f147 a33e 70e8 363f 7d83 813e e405 70be
000003e0: 2740 873e b691 3e3e df58 da3d 4787 ad3e
000003f0: 0f67 7b3e 67ef afbd d3b1 a13e ecbb 663e

conv_dw_5/depthwise_kernel f4 [1, 3, 3, 64]
0.43056777 0.09127995 -0.4869502 0.1312065 0.21365228 -0.7301954 -0.7187887 -0.07886761
-0.16848677 0.6396557 0.053500198 0.65114623 0.03953506 0.5304699 0.7504596 -0.22520217
-1.6116748 0.39191547 -0.15641122 -0.09647309 -0.036917597 -2.4001834 0.43870565 -1.4031098
-0.05208998 0.45031568 -1.3695924 0.01690439 0.14114185 0.5501189 -1.4208242 0.1777385
-1.3170631 -0.58896875 -0.5555598 0.41769576 -0.053936675 -0.10688294 0.186306 -0.03296677
2.0297127 -0.123449825 -0.57508343 0.032375738 -0.14870663 0.0021646298 -0.0919429 -0.44248754
0.20446932 -0.34578872 -0.04148427 0.3897028 -0.032518264 -0.12522283 0.1291905 -0.7058745
-1.1246198 0.22166249 0.36711514 0.11484576 -0.16373992 0.06751028 0.03319327 0.2199468
-0.7312913 1.0680265 0.02196306 -1.4152207 -0.31575772 0.031749558 -0.14413778 -0.12349104
0.6610388 -1.1621186 -0.28804976 -0.6176901 0.8279173 -0.6093138 -1.0278397 0.19928005
1.0615655 -1.1547966 -0.11331233 -0.06849865 0.23261115 2.2520552 0.32475308 0.953175
-1.5697893 -0.30187762 -0.39073795 -0.15217763 0.2732777 0.73156166 0.25872868 -0.07194192
1.9129623 0.6316514 -1.128517 -0.89096624 -0.19290063 0.25984102 0.6438869 0.1646218
-2.3117096 -0.049312197 -2.2412746 0.24902126 -0.8530192 0.43422052 -0.9107949 0.21547952
0.12880196 0.58590555 0.02881081 -0.7910729 -0.047973845 -1.2621286 3.1555593 -1.0095168
1.0356102 -0.42301732 -0.740115 -0.47701192 0.40608394 -0.5439565 1.1524421 1.0631629
0.36646435 0.20112981 0.2521408 0.21674679 -0.0069531896 0.54650426 -0.15434182 -0.06890695
0.047948528 0.1793175 0.10678572 -0.06741907 -0.12645285 0.17770319 0.16087724 0.05712773
1.1332247 0.57425874 0.17439537 -0.030176299 -0.09570619 0.21824962 0.3219675 1.00805
-0.44962236 -0.1646687 1.5379802 -0.028721616 0.0939168 -0.3710941 0.50649315 -0.111709505
-0.578552 0.08435065 1.1290854 0.31573686 -0.0159827 -0.13966624 -0.0300545 -0.10769518
0.00046939708 -0.053429343 -0.3900706 -0.0979639 0.05443535 0.14630944 -0.01396427 0.02191393
-0.14447814 -0.021451728 -0.2170282 0.36898747 -0.02925441 -0.30107617 -0.35041088 0.5513936
-0.1269811 -0.033468183 -0.7661209 0.03326498 0.20312351 0.07625963 0.68815863 0.018664662
-0.89025915 -0.1909627 0.48907605 -0.25263524 -0.3582397 -2.5516322 0.08455044 0.085736215
-0.039331563 1.35923 -0.2701957 1.9202484 0.57677853 0.83940333 -0.6066556 -0.65105426
1.2096705 2.3245225 -0.19722186 -0.018607182 0.031398553 2.4207966 -0.04442958 1.9132425
0.37692723 1.8473216 3.191739 0.09636903 0.12267164 0.7096903 -0.58270705 0.36829022
0.6670252 -0.44853634 0.326509 -0.66194403 -0.225266 -0.74154216 0.16836086 0.09666741
-1.7684494 -0.07946606 0.70082957 0.183103 0.073496446 -0.11124592 -0.04779897 0.19066785
0.0041945754 -1.1944885 -0.0021612719 0.47435707 -0.07756889 0.23173013 -0.48194933 -0.040909763
0.09359124 -0.22842044 0.43031782 -0.2608064 -0.17652978 -0.017804865 -0.23217145 -0.35811022
00000000: 6173 dc3e fcf0 ba3d 8951 f9be ff5a 063e
00000010: aac7 5a3e 16ee 3abf 8902 38bf 5785 a1bd
00000020: cc87 2cbe 7ac0 233f 0623 5b3d 85b1 263f
00000030: 84ef 213d e0cc 073f 1f1e 403f 669b 66be
00000040: 5c4b cebf 25a9 c83e 432a 20be af93 c5bd
00000050: e836 17bd 9b9c 19c0 079e e03e 1a99 b3bf
00000060: 4e5c 55bd c78f e63e ce4e afbf 137b 8a3c
00000070: 7d87 103e 98d4 0c3f 91dd b5bf 1501 363e
00000080: 8695 a8bf a8c6 16bf 2b39 0ebf 38dc d53e
00000090: b4ec 5cbd 71e5 dabd 00c7 3e3e 2a08 07bd
000000a0: d0e6 0140 43d3 fcbd ab38 13bf 6c9c 043d
000000b0: 8d46 18be 76dc 0d3b 8f4c bcbd ba8d e2be
000000c0: 6860 513e 380b b1be 69eb 29bd 2087 c73e
000000d0: df31 05bd 6a3a 00be 844a 043e 31b4 34bf
000000e0: 8bf3 8fbf 7efb 623e 84f6 bb3e 4134 eb3d
000000f0: 70ab 27be d442 8a3d abf5 073d bc39 613e
00000100: e835 3bbf 18b5 883f e0eb b33c f425 b5bf
00000110: ffaa a1be d30b 023d db98 13be dfe8 fcbd
00000120: d739 293f 4dc0 94bf 427b 93be f020 1ebf
00000130: 63f2 533f fdfb 1bbf 4090 83bf 1210 4c3e
00000140: 61e1 873f 60d0 93bf 4b10 e8bd 0549 8cbd
00000150: 9e31 6e3e ac21 1040 0946 a63e 4703 743f
00000160: dbee c8bf b48f 9abe ce0e c8be 74d4 1bbe
00000170: 0eeb 8b3e a047 3b3f 1678 843e 4956 93bd
00000180: f3db f43f e8b3 213f 3f73 90bf 5d16 64bf
00000190: be87 45be e209 853e c6d5 243f 9e92 283e
000001a0: 0df3 13c0 96fb 49bd 0b71 0fc0 6eff 7e3e
000001b0: 775f 5abf 2752 de3e db29 69bf aaa6 5c3e
000001c0: a9e4 033e e8fd 153f a604 ec3c c183 4abf
000001d0: 3980 44bd 6e8d a1bf aff4 4940 d937 81bf
000001e0: e08e 843f ba95 d8be 2d78 3dbf e83a f4be
000001f0: 3cea cf3e bc40 0bbf 3983 933f b915 883f
00000200: 37a1 bb3e f9f4 4d3e 9918 813e dff2 5d3e
00000210: 95d7 e3bb b4e7 0b3f c80b 1ebe 161f 8dbd
00000220: ad65 443d 029f 373e 79b2 da3d 0213 8abd
00000230: db7c 01be d3f7 353e 01bd 243e c4fe 693d
00000240: 820d 913f 9f02 133f b394 323e 4934 f7bc
00000250: 9b01 c4bd d47c 5f3e edd8 a43e c807 813f
00000260: e734 e6be e99e 28be 89dc c43f 9849 ebbc
00000270: 7457 c03d 0c00 bebe 89a9 013f f4c7 e4bd
00000280: fc1b 14bf 09c0 ac3d df85 903f 43a8 a13e
00000290: 27ee 82bc ab04 0fbe db34 f6bc 4a8f dcbd
000002a0: 6919 f639 bad8 5abd 55b7 c7be 4ca1 c8bd
000002b0: 9af7 5e3d 24d2 153e 65ca 64bc d884 b33c
000002c0: 14f2 13be 89bb afbc a43c 5ebe edeb bc3e
000002d0: f2a6 efbc a826 9abe 0e69 b3be 2228 0d3f
000002e0: 5507 02be ef15 09bd 8020 44bf dc40 083d
000002f0: 9cff 4f3e 022e 9c3d 2a2b 303f a2e6 983c
00000300: 06e8 63bf ba8b 43be 2d68 fa3e 6859 81be
00000310: 326b b7be f14d 23c0 c828 ad3d 7896 af3d
00000320: 221a 21bd 40fb ad3f 1757 8abe b3ca f53f
00000330: c2a7 133f 23e3 563f c84d 1bbf 7eab 26bf
00000340: 7cd6 9a3f fac4 1440 87f4 49be 176e 98bc
00000350: c59b 003d 55ee 1a40 cbfb 35bd 21e5 f43f
00000360: 9bfc c03e 0975 ec3f 7445 4c40 205d c53d
00000370: 453b fb3d 43ae 353f 4a2c 15bf 8990 bc3e
00000380: 2ac2 2a3f 8ea6 e5be 302c a73e 2a75 29bf
00000390: 21ac 66be b5d5 3dbf ca66 2c3e 90f9 c53d
000003a0: 8d5c e2bf 1abf a2bd 9169 333f 5a7f 3b3e
000003b0: 4e85 963d e7d4 e3bd dac8 43bd 6f3e 433e
000003c0: a672 893b 00e5 98bf 20a4 0dbb eede f23e
000003d0: 70dc 9ebd aa4a 6d3e 10c2 f6be ff90 27bd
000003e0: c4ac bf3d 0ce7 69be 9e52 dc3e 6b88 85be
000003f0: 39c4 34be 82db 91bc 5abe 6dbe 395a b7be

conv_dw_6/depthwise_kernel f4 [1, 3, 3, 64]
-0.13536347 -0.16079527 0.21957621 -0.28953022 0.23983866 -8.082302 0.17009431 -0.17913659
0.260188 0.2343036 -0.21539631 0.19596319 -0.7051478 -0.115129635 0.19619985 -0.19974068
0.18380232 0.054960188 0.31106836 -0.16914074 -0.21973214 0.11297322 0.95224226 -0.15581132
0.09993675 0.68549573 -0.1443168 -0.1182378 -0.1659293 -0.12737791 0.09625434 -0.094167285
-0.3846238 -0.3236016 -0.16825177 0.4901845 -0.096657604 0.27053547 0.22283228 -0.16164653
0.11113914 0.25501284 0.24630426 -0.21349333 -0.39348963 0.16222838 0.124849364 -0.23369524
0.18393195 0.26974404 -0.10542439 0.5857852 -0.2011445 -0.20266785 -0.18022893 -0.07405911
-0.32421327 0.1806859 0.27258405 -0.1533081 0.2600789 -0.19495562 0.6194693 0.15090968
-0.17364919 0.20944445 0.3270216 -0.40184686 0.34005436 3.7533545 0.20375167 -0.2023953
0.37523144 0.30243704 -0.28207633 0.20768106 -0.9653333 -0.16404524 0.24664639 -0.24798281
0.33315206 -0.24505648 0.70137 -0.2785622 -0.28299648 0.19390616 0.9905555 -0.1959855
0.09788417 -0.41572112 -0.18907449 -0.14290278 -0.28448293 -0.14920624 0.17234738 -0.14921655
-0.5546619 0.42153135 -0.22688812 0.69347966 -0.11324176 0.37269935 0.34005895 -0.23282348
0.14540678 0.3077779 0.30179608 -0.26322964 -0.54302 0.21648161 0.16647854 -0.2917093
0.26934057 0.3882864 -0.12844627 0.44849434 -0.23673223 -0.30252254 -0.29479483 -0.126999
-0.17593826 0.3036485 0.35847843 -0.18954903 0.36432323 -0.023314254 0.9104816 0.19732308
-0.08414362 0.18493225 0.15162328 -0.18634647 0.18115284 -4.4242682 0.11193068 -0.06421132
0.16384065 0.12887289 -0.101894304 0.08851798 -0.4004386 -0.07819573 0.084672205 -0.11819521
0.18968621 -0.3367828 0.4717225 -0.14336263 -0.10267708 0.09849452 0.20697685 -0.09509773
0.030578997 -0.05025284 -0.060606595 -0.061590284 -0.15114184 -0.040916048 0.095395856 -0.07447579
-0.25764316 0.21434548 -0.14181268 0.41331396 -0.051736616 0.15324706 0.18888974 -0.08587177
0.082555674 0.08222805 0.10416797 -0.111253135 -0.37190777 0.10964706 0.07197497 -0.16938995
0.11706858 0.18775406 -0.071409464 0.08718551 -0.094204165 -0.1848016 -0.16378464 -0.07703012
-0.043003175 0.19542788 0.16679409 -0.07939922 0.1732835 0.121042825 0.4719615 0.0700054
-0.19525748 -0.20279796 0.31967592 -0.41374105 0.32841632 5.3362083 0.23483504 -0.22534566
0.38580582 0.3646898 -0.28669178 0.23769745 0.18208796 -0.15914948 0.3380219 -0.28063884
0.36338502 0.094554104 -0.41149434 -0.2740034 -0.31322974 0.32419875 0.64745253 -0.19712217
0.19411956 0.91066724 -0.24632637 -0.1919796 -0.28237772 -0.15516795 0.12373681 -0.15943809
-0.5623995 -0.5743541 -0.25462624 0.7236637 -0.11359449 0.37036538 0.30414915 -0.2545438
0.15567769 0.37100467 0.3545847 -0.28250104 0.7062857 0.18904206 0.22552098 -0.31129178
0.33415285 0.3664488 -0.12489053 0.07021157 -0.29891664 -0.36437914 -0.31747887 -0.10741239
-0.19945769 0.30298334 0.3273603 -0.21579188 0.352302 -0.28344446 -0.52600586 0.21736433
00000000: b99c 0abe 84a7 24be 96d8 603e 4e3d 94be
00000010: 4498 753e 1c51 01c1 342d 2e3e 956f 37be
00000020: 5d37 853e 48ed 6f3e da90 5cbe 93aa 483e
00000030: 9184 34bf 16c9 ebbd 9de8 483e d288 4cbe
00000040: ad36 3c3e ef1d 613d 5a44 9f3e 3b33 2dbe
00000050: 7601 61be 815e e73d 26c6 733f 018d 1fbe
00000060: a4ab cc3d a67c 2f3f c9c7 13be a926 f2bd
00000070: 5fe9 29be 5b6f 02be ff20 c53d c7da c0bd
00000080: 69ed c4be 1caf a5be 314a 2cbe 76f9 fa3e
00000090: 6cf4 c5bd a083 8a3e 252e 643e ab86 25be
000000a0: eb9c e33d 0b91 823e 2f37 7c3e ff9d 5abe
000000b0: 7977 c9be 321f 263e 06b1 ff3d ce4d 6fbe
000000c0: a858 3c3e e41b 8a3e bee8 d7bd 05f6 153f
000000d0: d3f8 4dbe 2988 4fbe ef8d 38be 4dac 97bd
000000e0: 48ff a5be b905 393e 2390 8b3e ccfc 1cbe
000000f0: 1029 853e 72a2 47be 8a95 1e3f 1188 1a3e
00000100: 18d1 31be 9b78 563e 606f a73e dfbe cdbe
00000110: 9b1b ae3e f636 7040 47a4 503e b740 4fbe
00000120: 561e c03e 07d9 9a3e 4f6c 90be 58aa 543e
00000130: 1520 77bf 7afb 27be df90 7c3e 35ef 7dbe
00000140: e892 aa3e 16f0 7abe fc8c 333f b49f 8ebe
00000150: eae4 90be 568f 463e 0c95 7d3f 6cb0 48be
00000160: 7f77 c83d 66d9 d4be be9c 41be 1b55 12be
00000170: bfa7 91be 85c9 18be d57b 303e 39cc 18be
00000180: 53fe 0dbf f5d2 d73e 5c55 68be e287 313f
00000190: 4ceb e7bd 73d2 be3e 351c ae3e 4769 6ebe
000001a0: 84e5 143e 1195 9d3e 0485 9a3e 09c6 86be
000001b0: 5c03 0bbf 5bad 5d3e 5a79 2a3e ec5a 95be
000001c0: 02e7 893e 7acd c63e 6b87 03be 0da1 e53e
000001d0: ef69 72be 3ce4 9abe 59ef 96be 070c 02be
000001e0: 2929 34be d177 9b3e 7c8a b73e 2419 42be
000001f0: 9388 ba3e 89fd bebc 5215 693f 100f 4a3e
00000200: 7e53 acbd e15e 3d3e 2243 1b3e 9cd1 3ebe
00000210: 2180 393e 9b93 8dc0 ea3b e53d 3981 83bd
00000220: d8c5 273e 41f7 033e f6ad d0bd ea48 b53d
00000230: 4a06 cdbe 1525 a0bd 9f68 ad3d 5510 f2bd
00000240: 1a3d 423e cc6e acbe 9d85 f13e a7cd 12be
00000250: 5c48 d2bd 7fb7 c93d bdf1 533e 99c2 c2bd
00000260: ce80 fa3c ecd5 4dbd 9f3e 78bd 1846 7cbd
00000270: edc4 1abe 9697 27bd e75e c33d c386 98bd
00000280: cee9 83be 627d 5b3e 5837 11be e39d d33e
00000290: c6e9 53bd ccec 1c3e 506c 413e 8add afbd
000002a0: f312 a93d 2e67 a83d 0456 d53d afd8 e3bd
000002b0: b26a bebe a38e e03d 9d67 933d 8f74 2dbe
000002c0: a7c1 ef3d 9a42 403e 203f 92bd 518e b23d
000002d0: 1dee c0bd a13c 3dbe 29b7 27be f8c1 9dbd
000002e0: 1924 30bd 3f1e 483e 12cc 2a3e 0f9c a2bd
000002f0: 3b71 313e 4de5 f73d f0a4 f13e fe5e 8f3d
00000300: 94f1 47be 45aa 4fbe 90ac a33e ded5 d3be
00000310: 2f26 a83e 38c2 aa40 9978 703e 03c1 66be
00000320: 5788 c53e 9fb8 ba3e 44c9 92be f666 733e
00000330: 4475 3a3e 15f8 22be 3511 ad3e e5af 8fbe
00000340: 9a0d ba3e 95a5 c13d 63af d2be 2c4a 8cbe
00000350: a65f a0be 61fd a53e 73bf 253f 65da 49be
00000360: 47c7 463e 7d21 693f fb3c 7cbe 4d96 44be
00000370: d093 90be 59e4 1ebe ba69 fd3d bd43 23be
00000380: 6af9 0fbf df08 13bf 5f5e 82be 0642 393f
00000390: 3aa4 e8bd 88a0 bd3e 70b9 9b3e 9153 82be
000003a0: f969 1f3e 53f4 bd3e 208c b53e faa3 90be
000003b0: 24cf 343f 3e94 413e f9ee 663e a361 9fbe
000003c0: 1516 ab3e 2d9f bb3e 9bc6 ffbd 15cb 8f3d
000003d0: 9a0b 99be e78f babe 978c a2be 07fb dbbd
000003e0: a33e 4cbe a220 9b3e c59b a73e 8cf8 5cbe
000003f0: ee60 b43e a21f 91be 52a8 06bf c194 5e3e
